…
 lr_shrink=0.1, warmup_updates=0, gaussian_kernel=True, no_seed_provided=False, encoder_layers=15, encoder_embed_dim=512, encoder_ffn_embed_dim=2048, encoder_attention_heads=64, dropout=0.1, emb_dropout=0.1, attention_dropout=0.1, activation_dropout=0.0, pooler_dropout=0.0, max_seq_len=1024, activation_fn='gelu', pooler_activation_fn='tanh', post_ln=False, masked_token_loss=-1.0, masked_coord_loss=-1.0, masked_dist_loss=-1.0, x_norm_loss=-1.0, delta_pair_repr_norm_loss=-1.0, lattice_loss=-1.0, distributed_num_procs=1)
2025-06-07 17:36:16 | INFO | unimat.inference | UniMatModel(
  (embed_tokens): Embedding(31, 512, padding_idx=0)
  (encoder): TransformerEncoderWithPair(
    (emb_layer_norm): LayerNorm(torch.Size([512]), eps=1e-05, elementwise_affine=True)
    (final_layer_norm): LayerNorm(torch.Size([512]), eps=1e-05, elementwise_affine=True)
    (layers): ModuleList(
      (0-14): 15 x TransformerEncoderLayer(
        (self_attn): SelfMultiheadAttention(
          (in_proj): Linear(in_features=512, out_features=1536, bias=True)
          (out_proj): Linear(in_features=512, out_features=512, bias=True)
        )
        (self_attn_layer_norm): LayerNorm(torch.Size([512]), eps=1e-05, elementwise_affine=True)
        (fc1): Linear(in_features=512, out_features=2048, bias=True)
        (fc2): Linear(in_features=2048, out_features=512, bias=True)
        (final_layer_norm): LayerNorm(torch.Size([512]), eps=1e-05, elementwise_affine=True)
      )
    )
  )
  (gbf_proj): NonLinearHead(
    (linear1): Linear(in_features=128, out_features=128, bias=True)
    (linear2): Linear(in_features=128, out_features=64, bias=True)
  )
  (gbf): GaussianLayer(
    (means): Embedding(1, 128)
    (stds): Embedding(1, 128)
    (mul): Embedding(961, 1)
    (bias): Embedding(961, 1)
  )
  (classification_heads): ModuleDict()
  (node_classification_heads): ModuleDict(
    (nmr_head): NodeClassificationHead(
      (dense): Linear(in_features=512, out_features=512, bias=True)
      (dropout): Dropout(p=0.0, inplace=False)
      (out_proj): Linear(in_features=512, out_features=1, bias=True)
    )
  )
)
2025-06-07 17:36:16 | INFO | unimat.inference | task: UniNMRTask
2025-06-07 17:36:16 | INFO | unimat.inference | model: UniMatModel
2025-06-07 17:36:16 | INFO | unimat.inference | loss: AtomRegMAELoss
2025-06-07 17:36:16 | INFO | unimat.inference | num. model params: 47,593,795 (num. trained: 47,593,795)
2025-06-07 17:36:16 | INFO | unicore.tasks.unicore_task | get EpochBatchIterator for epoch 1
…
